model.pth (torch, 125254 bytes, 6 tensors)

weight_ih_l0 f4 [200, 100]
0	0x3d369b6c	0.044581816
1	0xbe4424a8	-0.19154608
2	0xbdeafa3c	-0.1147351
3	0xbe4005dc	-0.18752235
4	0x3d9d18ce	0.07670747
5	0xbdb1ec0e	-0.08687602
6	0x3e4cd959	0.20004787
7	0xbcf54d74	-0.02994416
8	0xbcd5dd95	-0.026106635
9	0xbda179c3	-0.07884552
10	0x3ab5b86b	0.0013864165
11	0x3da36a3e	0.079792485
12	0x3d901dce	0.07036935
13	0xbcceb272	-0.025231574
14	0xbdfdc601	-0.12391282
15	0xbdb0de37	-0.08636134
16	0x3cd91919	0.026501225
17	0x3e33c8da	0.17557088
18	0x3dafb06d	0.085785724
19	0xbd078cd0	-0.033093274
20	0x3de91901	0.11381722
21	0xbe10d61b	-0.14144175
22	0x3d7fc0b7	0.062439647
23	0xbd575f13	-0.052580904
24	0xbd126388	-0.03573945
25	0x3dae1205	0.08499531
26	0x3d9dce45	0.077053584
27	0xbd74e432	-0.059787937
28	0xbe193e5d	-0.14965196
29	0xbd952f50	-0.07284415
30	0xbe60742f	-0.2191932
31	0xbb396639	-0.002828969
32	0xbe9a9354	-0.30190527
33	0x3e7ae929	0.24503006
34	0xbcfb1361	-0.030648889
35	0xbe1a5c56	-0.15074286
36	0xbcabe7b4	-0.020984508
37	0x3e26fcb2	0.16307333
38	0x3c9b6120	0.018967211
39	0xbd01f03c	-0.031723246
40	0x3d05f687	0.03270581
41	0x3cf3686a	0.029712874
42	0x3dcd6059	0.100281425
43	0xbb4bfcbe	-0.0031125988
44	0xbd9062a0	-0.07050061
45	0x3d86c29a	0.06580086
46	0xbdaf8153	-0.085695885
47	0x3e3684ad	0.1782405
48	0x3cf9ff91	0.030517371
49	0xbd801836	-0.06254618
50	0xbe52ec8a	-0.20598045
51	0x3df53894	0.11973682
52	0xbe74c7f6	-0.23904404
53	0xbe839aac	-0.25703943
54	0x3ddc71f1	0.1076392
55	0xbdd814ea	-0.10550864
56	0xbd65ea18	-0.056131452
57	0x3c40342d	0.01173119
58	0x3c91c254	0.017792858
59	0x3d91898c	0.07106313
60	0xbdb970f3	-0.090547465
61	0x3da954ad	0.08268104
62	0x3d90f6c8	0.0707832
63	0xbc266c7d	-0.010157702
64	0x3d510e54	0.051039055
65	0x3e0babab	0.13639705
66	0x3d8a6871	0.06758202
67	0xbc4db196	-0.012554547
68	0x3d95b411	0.073097356
69	0xbdd89686	-0.10575585
70	0x3e737727	0.23775922
71	0xbe031cf0	-0.12804008
72	0xbc1e35bd	-0.009656367
73	0x3ca1cbb8	0.019750461
74	0x3de30285	0.11084465
75	0xbca003d8	-0.019533083
76	0xbb7652bc	-0.0037585935
77	0xbdba5b5a	-0.09099455
78	0xbe854584	-0.260296
79	0x3e07922d	0.13239355
80	0x3db26907	0.087114386
81	0x3e166d79	0.14690198
82	0x3d80d360	0.062903166
83	0x3e3e3b0e	0.18577215
84	0x3d6d9c6b	0.0580105
85	0xbe204039	-0.15649499
86	0x3e25c387	0.16187869
87	0x3d717ace	0.058955006
88	0x3cf605b1	0.03003201
89	0x3dd8f4c7	0.105935626
90	0xbdd43436	-0.10361521
91	0xbdf09d49	-0.1174875
92	0xbe2f2278	-0.17102993
93	0xbc419860	-0.011816114
94	0xbe83d014	-0.2574469
95	0xbd1b54c8	-0.03792265
96	0xbdaccae3	-0.08437135
97	0x3def8d7f	0.1169691
98	0x3e69a999	0.22818603
99	0xbcff4048	-0.031158581
100	0xbd4aa10b	-0.04946999
101	0xbd42078f	-0.04737049
102	0xbe68bdf7	-0.22728716
103	0xbe0b2239	-0.13587274
104	0x3da33822	0.07969691
105	0xbd133d2e	-0.035947017
106	0x3dec1f1f	0.115293734
107	0xbd98c458	-0.074593246
108	0x3e1daa43	0.15396981
109	0x3e6b03ab	0.22950618
110	0xbdd63e9f	-0.10461163
111	0x3e5398e3	0.2066379
112	0xbdcd3e06	-0.10021596
113	0xbdf9fdd8	-0.1220662
114	0x3e553431	0.2082069
115	0xbe7b5f92	-0.24548176
116	0xbe97cd68	-0.296489
117	0x3e193778	0.14962566
118	0x3dbb3c0e	0.09142314
119	0x3e8bcfe1	0.27307037
120	0xbe1b7b03	-0.15183644
121	0xbe6675ab	-0.22505824
122	0xbd7ebf07	-0.062193897
123	0xbcab3356	-0.020898502
124	0x3dcf779d	0.10130236
125	0xbe1bab67	-0.15202104
126	0x3df7a4a6	0.12091951
127	0x3e826207	0.25465414
128	0x3e2eb57f	0.17061423
129	0xbd96b7b9	-0.07359261
130	0xbe8a27f6	-0.26983613
131	0xbd9e7dcb	-0.07738837
132	0xbeac0ebe	-0.33604997
133	0x3e4eb8e6	0.2018772
134	0xbe37a759	-0.17934932
135	0xbd88059a	-0.066416934
136	0x3e421368	0.18952715
137	0x3e438c0d	0.19096394
138	0x3e5f184a	0.2178661
139	0x3c426f89	0.011867412
140	0xbd930f5c	-0.07180664
141	0x3e3f6732	0.1869171
142	0x3e2c9264	0.16852719
143	0xbe8e8c4d	-0.27841416
144	0xbde5532e	-0.11197506
145	0x3e530a5a	0.20609418
146	0x3dd7c367	0.10535317
147	0x3e560ad2	0.20902565
148	0xbe9a344e	-0.3011803
149	0xbe78e3ee	-0.24305698
150	0xbd05a9e4	-0.032632723
151	0xbe056390	-0.13026261
152	0xbea5af1e	-0.32360166
153	0xbe12ce0a	-0.1433641
154	0x3d18e76a	0.03733007
155	0x3dc12112	0.09430136
156	0x3c08f12e	0.008358283
157	0x3c613cfa	0.013747448
158	0x3d83ef59	0.06442136
159	0xbe5c3d24	-0.21507698
160	0xbe248a0c	-0.16068286
161	0x3e18785e	0.14889666
162	0xbe4394a1	-0.19099666
163	0x3d81737c	0.06320855
164	0x3e53fd45	0.20702083
165	0xbc2cce6a	-0.01054726
166	0xbb9ded5f	-0.0048195566
167	0xbea20322	-0.31643015
168	0x3dcf5e63	0.10125425
169	0xbdc72130	-0.09723127
170	0x3e3423db	0.17591803
171	0xbdab7ccc	-0.083734125
172	0xbe30f6eb	-0.17281692
173	0x3d35bae0	0.04436767
174	0x3e0f4c33	0.13993911
175	0x3d865e3c	0.065609425
176	0xbd9c07ab	-0.0761865
177	0x3e1b44de	0.1516299
178	0xbe117daa	-0.14208093
179	0x3ead0cf0	0.33798933
180	0x3e3bb2bd	0.18329902
181	0xbdffc483	-0.124886535
182	0xbd266204	-0.04062082
183	0x3cc8fa44	0.024533398
184	0x3e5cdc2a	0.21568361
185	0xbe3b6519	-0.18300284
186	0xbc3a1135	-0.011356642
187	0x3e799d2d	0.24376364
188	0x3d742b12	0.059611388
189	0xbd905ea5	-0.07049302
190	0xbe87f447	-0.26553556
191	0xbdeae342	-0.11469127
192	0xbe7f6106	-0.24939355
193	0x3dc65f0f	0.096861
194	0xbe39346b	-0.18086402
195	0xbe8c3101	-0.27381137
196	0xbe54520d	-0.20734425
197	0x3e807e6c	0.25096452
198	0x3e39224e	0.18079492
199	0xbdcea67b	-0.100903474
200	0x3da4239a	0.08014603
201	0xbe8034b9	-0.25040224
202	0xbe97b6eb	-0.29631743
203	0xbe17a2b9	-0.14808168
204	0x3e838fcb	0.25695643
205	0x3bc63033	0.0060482263
206	0xbc7b29ac	-0.01532976
207	0xbdbd2b48	-0.09236771
208	0x3e83ce9b	0.25743565
209	0x3db20ff7	0.08694451
210	0xbe5da280	-0.2164402
211	0x3e86b6d7	0.2631137
212	0x3e5d5cf1	0.21617486
213	0x3c970258	0.018433735
214	0x3d4e61fe	0.05038642
215	0xbe03b3fd	-0.12861629
216	0xbdccf392	-0.10007395
217	0x3e440f7d	0.19146533
218	0x3df2885d	0.118424155
219	0x3e7919c2	0.24326232
220	0xbe831cfd	-0.25608054
221	0xbe533149	-0.2062427
222	0x3d7b14ba	0.061299063
223	0x3d1e1b2a	0.038600124
224	0x3cd553f4	0.026041009
225	0xbb40175b	-0.0029310796
226	0x3db00fe4	0.08596781
227	0x3e10fede	0.14159724
228	0x3d82b9c2	0.06383087
229	0xbe4bd957	-0.19907127
230	0xbc5304c7	-0.012879557
231	0xbd9f3570	-0.07773864
232	0xbdf8f49e	-0.12156032
233	0x3e89f965	0.26948085
234	0xbe778984	-0.24173552
235	0xbe5b6c06	-0.21427926
236	0xbcf34ebf	-0.029700635
237	0xbdca3fa4	-0.0987542
238	0x3c39ece4	0.011347983
239	0xbdd4a335	-0.10382692
240	0xbacf0aef	-0.0015796105
241	0x3e7b88a1	0.24563839
242	0x3c96eb3b	0.018422714
243	0xbeb0b699	-0.3451431
244	0xbd86455e	-0.065561995
245	0xbdc3bbae	-0.095572814
246	0x3d1c1b72	0.03811211
247	0x3eb2d504	0.34928143
248	0xbe7d20e5	-0.2471958
249	0x3dd207ea	0.10255416
250	0x3d23084f	0.039802846
251	0xbd997929	-0.074938126
252	0xbdead53a	-0.11466451
253	0xbd270056	-0.040771805
254	0xbe1b2c48	-0.1515361
255	0xbe0daeaf	-0.13836168

weight_hh_l0 f4 [200, 50]
0	0x3df4d7f2	0.11955251
1	0xbde93e8e	-0.113888845
2	0x3cac6d00	0.021048069
3	0xbdb0f071	-0.086396106
4	0x3de82ffe	0.11337279
5	0xbdce6662	-0.10078122
6	0xbdb15a10	-0.08659756
7	0xbda01c0c	-0.078178495
8	0xbcd5cfe8	-0.026100114
9	0xbd3c981a	-0.046043493
10	0xbdde981c	-0.10868856
11	0x3d852a96	0.06502263
12	0xbc7f0030	-0.01556401
13	0x3dde86c6	0.1086555
14	0xbd0c2ed6	-0.034224354
15	0x3d8dc5ba	0.06922479
16	0xbd000122	-0.03125108
17	0xbdcf0a08	-0.10109335
18	0x3dbbbc12	0.09166731
19	0x3dc084ea	0.09400351
20	0xbc5777f0	-0.013151154
21	0xbdaf2984	-0.0855284
22	0x3dce7264	0.10080412
23	0xbdb74d84	-0.08950332
24	0xbdb39d34	-0.087702185
25	0xbe08fdda	-0.13378087
26	0xbde55370	-0.11197555
27	0x3c85a498	0.016313836
28	0x3cbe0b18	0.02319865
29	0x3e07421d	0.13208814
30	0x3d663464	0.056202307
31	0x3dd54218	0.10412997
32	0x3c556e30	0.013026759
33	0x3d3d07c8	0.04615
34	0xbd8ee200	-0.069767
35	0x3df91106	0.1216145
36	0xbce1c4f8	-0.027559742
37	0xbd9dc1c5	-0.07702974
38	0x3c8b1950	0.016979843
39	0xbe0f19e4	-0.1397472
40	0xbbd53a40	-0.006507188
41	0x3ddafe18	0.10692996
42	0x3dccee4a	0.100063875
43	0xbd35ca9c	-0.044382676
44	0xbcc49c80	-0.024000406
45	0xbddca315	-0.10773293
46	0x3d830ff6	0.06399529
47	0x3da47636	0.080303594
48	0x3d267194	0.04063566
49	0x3d9de648	0.07709938
50	0xbd6c4f18	-0.057692617
51	0xbd2823bc	-0.041049704
52	0xbdffe016	-0.12493913
53	0xbde18121	-0.110109575
54	0xbd909d0e	-0.07061206
55	0xbb470440	-0.0030367523
56	0xbc277bb0	-0.0102223605
57	0xbcf701e0	-0.030152261
58	0xbbd9dea0	-0.0066488534
59	0xbdc0c912	-0.09413351
60	0xbd665788	-0.05623582
61	0x3d96fc4e	0.07372342
62	0xbd61aabc	-0.055094466
63	0x3dd12c34	0.10213509
64	0x3dc32b96	0.09529798
65	0x3d0ec2a8	0.034853607
66	0xbe02918b	-0.12750833
67	0xbd9cfe55	-0.076656975
68	0xbda45a9e	-0.08025096
69	0xbcd6493c	-0.026157968
70	0x3d1b2c10	0.03788382
71	0x3dd2ff04	0.103025466
72	0x3d44f6a4	0.048086777
73	0xbd7a34ba	-0.06108544
74	0x3ba98780	0.0051736236
75	0x3b168940	0.002296999
76	0xbce11208	-0.027474418
77	0xbc406d10	-0.0117447525
78	0xbd9b7de6	-0.075923726
79	0x3dad1a14	0.0845224
80	0x3de5e87e	0.11225985
81	0xbd535a58	-0.05159983
82	0xbd2dc0e4	-0.042420283
83	0xbe083d4c	-0.13304633
84	0x3db6b694	0.08921543
85	0xbdee6f58	-0.11642331
86	0xbd353936	-0.044244014
87	0xbe0f5159	-0.13995875
88	0xbdb87768	-0.0900715
89	0xbcef118c	-0.029183172
90	0xbd82e214	-0.06390777
91	0xbd68f160	-0.05687082
92	0x3c86d5c0	0.016459346
93	0xbd7a5044	-0.061111704
94	0xbe025d59	-0.12730922
95	0x3ddcfc4a	0.10790308
96	0x3dceed6c	0.101038784
97	0x3d912f8e	0.070891485
98	0x3d4240b8	0.047425
99	0x3e0236a7	0.1271616
100	0x3dbfbb28	0.09361869
101	0x3ce11918	0.027477786
102	0x3cf63e68	0.030059054
103	0xbcc2ce30	-0.023779958
104	0x3dc74dc2	0.09731628
105	0x3cad6310	0.0211654
106	0xbdbeaa9a	-0.093098834
107	0xbdcee376	-0.101019785
108	0x3d743da0	0.059629083
109	0x3d9aac52	0.07552399
110	0x3df3b822	0.11900355
111	0xbd497100	-0.04918003
112	0x3dde7ca6	0.108636186
113	0x3d888eb0	0.066678405
114	0x3dfc2cb6	0.123132154
115	0x3d3358c4	0.043785825
116	0xbd606076	-0.054779492
117	0x3d191c80	0.037380695
118	0xbda03c3d	-0.078239895
119	0x3daca018	0.08428973
120	0x3d0516c0	0.0324924
121	0x3d9fee08	0.07809073
122	0x3d6cea6c	0.05784075
123	0xbdcd28df	-0.10017561
124	0xbd99b527	-0.07505255
125	0xbd51a204	-0.0511799
126	0xbd3b1372	-0.04567284
127	0xbd80e152	-0.062929764
128	0x3d29024c	0.041261956
129	0x3d4a41b8	0.04937908
130	0x3e04cfdd	0.12969919
131	0xbdece6c4	-0.115674525
132	0x3db60a6c	0.088887066
133	0x3ca8a120	0.020584643
134	0xbd3301aa	-0.04370276
135	0x3dfc4db6	0.1231951
136	0x3d88ed00	0.06685829
137	0xbd0f0dd2	-0.03492529
138	0xbd2eea70	-0.042704046
139	0xbcbf7f30	-0.023376077
140	0xbdeb5e59	-0.11492605
141	0xbd849eb1	-0.064755805
142	0xbc71f760	-0.014768451
143	0xbdea42a4	-0.11438492
144	0xbdaee9ae	-0.085406646
145	0xbc32a7d0	-0.010904267
146	0xbd552f28	-0.052046925
147	0xbdba6aa6	-0.09102373
148	0x3d393e20	0.045225263
149	0x3d161b9c	0.036647424
150	0x3e074c41	0.13212682
151	0xbd013b40	-0.031550646
152	0xbd9023eb	-0.07038101
153	0xbb68ea40	-0.0035540015
154	0x3dd2fb46	0.10301833
155	0xbd716bc4	-0.058940664
156	0xba4a5a00	-0.00077190995
157	0x3dccd32c	0.10001215
158	0xbb8695e0	-0.004107222
159	0x3ccb5ce8	0.024824575
160	0xbd76a5f8	-0.060216874
161	0x3d391b3c	0.04519199
162	0x3d4185f0	0.047246873
163	0x3d118a58	0.035532326
164	0x3d104c58	0.035229057
165	0x3de3d8a2	0.11125304
166	0xbdbaf3cf	-0.09128534
167	0x3de30c42	0.11086322
168	0x3d522ebc	0.0513141
169	0xbde626f1	-0.11237896
170	0xbcb9da90	-0.022687227
171	0x3d738100	0.059449196
172	0xbdce2c2d	-0.100670196
173	0x3d1f9d8c	0.038968608
174	0xbccfe1c0	-0.0253762
175	0x3e0b565d	0.13607164
176	0x3d4fc3b0	0.05072373
177	0xbc912f34	-0.017722704
178	0xbdf87a08	-0.121326506
179	0x3da15afc	0.07878682
180	0xbd999fd5	-0.07501189
181	0x3e06eba3	0.13175826
182	0x3c9ceb60	0.019155204
183	0xbde44a63	-0.11147001
184	0x3d83d674	0.06437388
185	0xbdbe2744	-0.09284833
186	0x3d195390	0.037433207
187	0xbdb1a8a6	-0.08674745
188	0xbde47e58	-0.11156911
189	0x3d7ea720	0.0621711
190	0xbde3141e	-0.110878214
191	0x3e0a8649	0.13527788
192	0x3d90ba62	0.070668
193	0xbe0c6185	-0.13709076
194	0xbc5f3eb0	-0.013625786
195	0xbd5e4522	-0.05426515
196	0x3c94b160	0.018150985
197	0xbcd9c48c	-0.026582979
198	0x3d986a98	0.07442206
199	0x3d9f3b0e	0.07774936
200	0x3ca03e00	0.019560814
201	0xbe0a92af	-0.13532518
202	0x3c663570	0.014050826
203	0xbdd869d2	-0.105670586
204	0x3da7eb4c	0.08199176
205	0xbd930d67	-0.07180291
206	0x3e08e4b3	0.13368492
207	0x3cdc0da8	0.02686198
208	0xbd5b42b8	-0.053530425
209	0xbdf6e9ee	-0.12056337
210	0xb9375c00	-0.00017486513
211	0x3e0d4933	0.13797455
212	0xbe005b8f	-0.12534927
213	0xb9746c00	-0.00023309886
214	0xbdc7f18e	-0.0976287
215	0xbcd7f358	-0.026361153
216	0xbcec6eb0	-0.028861374
217	0x3d87960e	0.066204175
218	0xbdf82e2d	-0.12118182
219	0xbdbd0801	-0.09230042
220	0xbdf20d3d	-0.11818931
221	0xbc33eb70	-0.010981426
222	0xbbdb9d20	-0.0067020804
223	0x3da4ffd8	0.08056611
224	0x3dd2de02	0.10296251
225	0xbdf0f851	-0.117661126
226	0x3dc793da	0.09744997
227	0xbd5bf270	-0.053698003
228	0x3dbf441e	0.09339164
229	0x3d99f0ee	0.07516657
230	0xbdff88a9	-0.12477238
231	0xbe0483b7	-0.1294087
232	0xbd348454	-0.04407151
233	0xbdad6c54	-0.084679276
234	0x3e006155	0.12537129
235	0x3d5afbac	0.05346267
236	0x3dfba9ba	0.12288232
237	0x3d9997ea	0.074996784
238	0x3dde9e62	0.10870053
239	0x3d9b48f2	0.075822726
240	0xbe087cc8	-0.1332885
241	0xbdccf202	-0.10007097
242	0x3c06ef00	0.008235693
243	0xbe0601d4	-0.13086635
244	0x3d6abc84	0.05730869
245	0x3cf02398	0.029313847
246	0x3dd05396	0.10172193
247	0x3dd94e3e	0.10610627
248	0x3d97df58	0.07415646
249	0x3ded407a	0.115845636
250	0xbcd3c6c4	-0.025851615
251	0xbd9aab7d	-0.0755224
252	0x3d95dd0e	0.073175535
253	0xbcf23028	-0.029563978
254	0x3db89d72	0.09014405
255	0x3dd86824	0.10566738

bias_ih_l0 f4 [200]
0	0x3e083f47	0.13305388
1	0x3e5b3dae	0.21410248
2	0x3e13ac5c	0.14421219
3	0x3ed5e3ce	0.41775364
4	0x3e17d093	0.14825659
5	0x3de5546a	0.11197741
6	0x3d0e472e	0.03473585
7	0x3d53c23e	0.051698916
8	0x3e7c5f96	0.24645838
9	0x3e049b95	0.12949975
10	0x3e8d4d36	0.2759797
11	0x3eab8ed5	0.3350741
12	0x3e53a64e	0.20668909
13	0x3e744110	0.23852944
14	0x3e8f28b7	0.2796075
15	0x3e081f45	0.13293178
16	0x3da79a46	0.08183722
17	0x3e4d0985	0.20023163
18	0x3e06824c	0.13135642
19	0x3e09b702	0.13448718
20	0x3d577cfe	0.052609436
21	0x3dc1f3ed	0.09470353
22	0x3e39b26c	0.18134469
23	0x3e59e13f	0.21277331
24	0x3d7c6343	0.0616181
25	0x3e5ce1c6	0.215705
26	0x3e959929	0.29218414
27	0x3e1d1d28	0.15343153
28	0x3e458f15	0.19292863
29	0x3e88e4b9	0.26737002
30	0x3e3e4720	0.1858182
31	0x3e1596f0	0.1460836
32	0x3e6ea499	0.23304977
33	0xbd781ded	-0.060575414
34	0x3e99bfc1	0.3002911
35	0x3e529b32	0.20567015
36	0x3dee9002	0.11648561
37	0x3e8c4ccf	0.2740235
38	0x3e3d57c5	0.18490513
39	0x3db0d3ae	0.08634125
40	0x3de898f8	0.113573015
41	0xbd903b8e	-0.07042609
42	0x3eca27d0	0.394835
43	0x3dd2cf2d	0.10293422
44	0x3d6a8fae	0.05726593
45	0x3e4f517b	0.20245926
46	0x3db7dcbd	0.08977649
47	0x3e3767f3	0.17910747
48	0xbc83578a	-0.016032953
49	0x3e5a82b7	0.21338926
50	0x3dc2757a	0.09495063
51	0xbcaa1ca0	-0.020765603
52	0xb8918800	-6.939471e-05
53	0xbd8180e6	-0.063234136
54	0xbd470200	-0.04858589
55	0xbdb9b668	-0.09067994
56	0x3d3d2b04	0.0461836
57	0x3cc37a50	0.023862034
58	0xbd872ccf	-0.066003434
59	0xbde3fe03	-0.11132433
60	0x3db071de	0.086154684
61	0xbd6409aa	-0.05567328
62	0x3d98341e	0.074318156
63	0xbe0cd4fc	-0.13753122
64	0x3d18db58	0.037318558
65	0xbbab1e40	-0.005222112
66	0xbd5e7450	-0.054310143
67	0x3e0ec81f	0.13943528
68	0x3d947eec	0.07250771
69	0xbd046f50	-0.03233272
70	0x3de38c7e	0.11110781
71	0x3ccc5c48	0.024946347
72	0x3db9dec2	0.09075691
73	0xbd6e620e	-0.05819898
74	0xbe011657	-0.12606178
75	0x3b8741a0	0.004127696
76	0xbdd0011a	-0.1015646
77	0xbdb83a5d	-0.08995507
78	0x3de13a12	0.10997404
79	0xbd334678	-0.043768376
80	0x3d304368	0.043033034
81	0xbd7288d2	-0.059212513
82	0x3dc1989a	0.094529346
83	0xbcf6a4f8	-0.03010796
84	0x3cb49e88	0.02204825
85	0x3d898cb6	0.067162916
86	0x3e027523	0.12739997
87	0xbddc9d86	-0.10772233
88	0x3dbb21b4	0.09137288
89	0xbc062280	-0.008186936
90	0x3dd90ef8	0.10598558
91	0xbdc2b510	-0.09507191
92	0x3e0cd25b	0.13752119
93	0xbe106525	-0.14101084
94	0xbd60ada8	-0.05485311
95	0x3dd879ee	0.10570131
96	0x3d4aa774	0.049476102
97	0xbd9738af	-0.073838584
98	0xbddd6dc8	-0.10811955
99	0xbe0ca584	-0.13735014
100	0xbd7ddb16	-0.061976515
101	0x3cff5585	0.031168709
102	0xbdda4a4c	-0.10658702
103	0xbe046b87	-0.12931643
104	0x3e14a502	0.1451607
105	0xbd837830	-0.06419408
106	0x3d40f4d4	0.047108486
107	0xbcb2b8b5	-0.02181659
108	0x3bebba08	0.0071938075
109	0x3d86723b	0.065647565
110	0xbd9451d2	-0.072421685
111	0xbe253c8e	-0.16136381
112	0x3d94d9c4	0.07268098
113	0xbdfa8bce	-0.12233697
114	0xbd4a22ec	-0.04934971
115	0x3ce584b4	0.02801738
116	0xbd761952	-0.06008274
117	0x3dabddc0	0.08391905
118	0x3deaa6c5	0.1145759
119	0x3c55b06f	0.013042553
120	0xbddba741	-0.107252605
121	0xbcddaf54	-0.027061142
122	0xbd1ab6d6	-0.037772022
123	0xbd4990e3	-0.04921044
124	0x3ca7638e	0.020433214
125	0xbd556a9d	-0.052103627
126	0xbd35d0cc	-0.044388577
127	0x3cdc293e	0.026875135
128	0x3b33bff0	0.0027427636
129	0x3d865c41	0.06560565
130	0x3d7a7be2	0.0611533
131	0xbcaae4e4	-0.020861097
132	0x3d8297c3	0.063766025
133	0x3c9a0054	0.018798985
134	0x3ce9f099	0.028557109
135	0x3dbbb51c	0.09165403
136	0xbd92dd2b	-0.07171091
137	0x3ded07b7	0.11573737
138	0x3e018f41	0.12652303
139	0x3ded8644	0.11597875
140	0x3deb0ce3	0.11477067
141	0x3cd70e39	0.0262519
142	0xbbe23f8c	-0.006904548
143	0x3c50b35d	0.012738076
144	0xbda75b54	-0.08171716
145	0xbd3773b7	-0.04478809
146	0x3daa7380	0.08322811
147	0x3b14c168	0.0022698287
148	0x3d9380f0	0.07202327
149	0x3abca32d	0.0014391892
150	0x3ddfd187	0.10928636
151	0x3e13d6ae	0.14437363
152	0x3cb0991a	0.02155738
153	0x3e6fbcd6	0.23411879
154	0x3d9ca840	0.07649279
155	0x3d51a4f5	0.051182706
156	0x3df64a0c	0.12025842
157	0x3e4af7ee	0.1982114
158	0x3ea6a3ea	0.32546932
159	0x3e3073ed	0.17231722
160	0x3e27e0ea	0.16394392
161	0x3e56c2dc	0.2097277
162	0x3e2dba85	0.16965683
163	0x3c138806	0.0090045985
164	0x3d8b8ca7	0.06813937
165	0x3daa14ef	0.08304774
166	0x3c2f48f8	0.010698549
167	0xbc8e25a2	-0.01735193
168	0xbd2fc33e	-0.042910807
169	0x3e3636de	0.17794368
170	0x3e44fd7c	0.19237322
171	0x3e831c9e	0.2560777
172	0x3e4f75ae	0.20259735
173	0x39e70298	0.00044061686
174	0x3e78d07e	0.24298283
175	0x3ddf4655	0.10902087
176	0x3dd6062a	0.104503945
177	0x3e8d451b	0.27591786
178	0x3e580a87	0.21097766
179	0x3e86f881	0.26361468
180	0x3d86e7d4	0.065871865
181	0x3e196960	0.14981604
182	0x3db45eb6	0.08807127
183	0x3df64d93	0.12026515
184	0x3e9614ca	0.29312736
185	0x3e85b76a	0.26116496
186	0x3e2c38e1	0.16818573
187	0x3e9b6dd1	0.3035722
188	0x3de86b2f	0.11348569
189	0x3d465745	0.04842307
190	0x3e7d055e	0.24709079
191	0xbd6b89ac	-0.05750434
192	0x3e44aeb9	0.19207276
193	0x3d123169	0.035691652
194	0xbd484dcd	-0.04890232
195	0x3e85dc69	0.26144722
196	0x3e6ee895	0.2333091
197	0x3e2a5108	0.16632473
198	0x3c806c1b	0.015676549
199	0x3e49de7b	0.19713776

bias_hh_l0 f4 [200]
0	0x3d6fcfbd	0.058547724
1	0x3e6a3e64	0.22875363
2	0x3da2ddf7	0.07952493
3	0x3e451194	0.19244987
4	0xbca1dfc8	-0.019760028
5	0x3e7c9eda	0.24669972
6	0x3e7c0ade	0.2461352
7	0x3e4a4a36	0.19754872
8	0x3eb112ec	0.3458475
9	0x3e6b8d98	0.23003232
10	0x3e66afa1	0.22527935
11	0x3e15c32f	0.14625238
12	0x3e8ec50c	0.2788471
13	0x3d9ce698	0.0766117
14	0x3e40b1fe	0.18817899
15	0x3e9c8dd7	0.30576965
16	0x3e727411	0.23677088
17	0x3d736f6e	0.05943244
18	0x3e690278	0.22754848
19	0x3e19c709	0.15017332
20	0x3e9c49c4	0.3052503
21	0x3e27272d	0.16323538
22	0x3ec870f0	0.39148664
23	0x3c7842ae	0.015152616
24	0x3e19704b	0.14984243
25	0x3da83481	0.08213139
26	0x3e91d5ef	0.2848353
27	0x3ec9f30e	0.3944325
28	0x3dfb781b	0.12278768
29	0x3e5922fa	0.21204749
30	0x3e13d95d	0.14438386
31	0x3df2373b	0.118269406
32	0xbb9cc3c6	-0.00478408
33	0xbd8da50a	-0.06916244
34	0x3ea0a87a	0.31378537
35	0x3e112338	0.14173591
36	0x3d702114	0.058625296
37	0x3d8acfda	0.06777926
38	0x3e42dcf3	0.19029598
39	0x3ce0b5ff	0.027430533
40	0x3e6aba6d	0.22922678
41	0x3e0a1982	0.13486293
42	0x3ecf5281	0.40492633
43	0x3e88ee6a	0.26744395
44	0x3e10d673	0.14144306
45	0x3e8bf88f	0.27338073
46	0x3e43f867	0.19137727
47	0x3dc88b1b	0.09792157
48	0x3dea3516	0.114359066
49	0x3db61973	0.08891573
50	0x3c4243b0	0.011856958
51	0x3e02b67d	0.12764926
52	0x3dfbf8de	0.12303327
53	0x3a303800	0.0006722212
54	0xbe0f63aa	-0.14002863
55	0x3d80654c	0.06269321
56	0xbd99cf40	-0.07510233
57	0x3c975de0	0.01847738
58	0xbbd5eee0	-0.0065287203
59	0x3baf0440	0.005341083
60	0xbc67f320	-0.014157087
61	0xbdd2a9cf	-0.10286295
62	0x3d98fe02	0.07470323
63	0xbd5cc47c	-0.05389832
64	0xb93dd800	-0.00018104911
65	0x3def6476	0.11689083
66	0x3cfb0a90	0.030644685
67	0xbde081b2	-0.109622374
68	0x3c0e5c20	0.0086889565
69	0xbdaca688	-0.08430201
70	0xbde8b0d1	-0.1136185
71	0xbcac85c0	-0.02105987
72	0x3d0f1668	0.034933478
73	0x3df6bb5a	0.12047453
74	0xbdce5355	-0.10074488
75	0xbdd94830	-0.10609472
76	0xbdc78328	-0.09741813
77	0x3c6c0da0	0.014407545
78	0x3d818746	0.063246295
79	0x3cd60918	0.026127383
80	0xbdb7eb83	-0.08980467
81	0x3bf47aa0	0.007460907
82	0x3dd11680	0.1020937
83	0xbc4d8f50	-0.012546375
84	0xbd5bb656	-0.053640686
85	0x3df7354e	0.12070714
86	0xbdf172cc	-0.11789474
87	0x3de77846	0.11302237
88	0x3d2d1680	0.042257786
89	0xbbae92a0	-0.0053275377
90	0x3ca2a038	0.019851789
91	0xbd169f50	-0.036773026
92	0x3dd29882	0.10282995
93	0xbe04ee08	-0.12981427
94	0xbe0c4075	-0.13696463
95	0x3d2f198c	0.042748973
96	0xbd018068	-0.0316166
97	0x3d186238	0.037203044
98	0xbdfbce23	-0.12295177
99	0xbe03442f	-0.12818979
100	0xbdb110f9	-0.086458154
101	0xbdd5e1b4	-0.1044344
102	0xbd263f52	-0.04058773
103	0xbd8333e8	-0.06406385
104	0x3e0899fb	0.13339989
105	0x3ccf7679	0.025325047
106	0xbd299286	-0.0413995
107	0xbd0ea969	-0.03482953
108	0xbc288009	-0.010284432
109	0xbd9f4974	-0.07777682
110	0x3c51a845	0.012796466
111	0x3d5f1497	0.054462995
112	0x3decbb17	0.11559122
113	0xbda990b5	-0.08279554
114	0xbc050641	-0.008119167
115	0x3d32b93b	0.04363368
116	0xbddbf724	-0.10740498
117	0xbc4ff58e	-0.012692822
118	0xbc247883	-0.010038498
119	0xbd1edfcd	-0.03878765
120	0x3b75802c	0.003746043
121	0x3df850ce	0.12124787
122	0x3d8cb6bf	0.068707936
123	0xbe1d3648	-0.15352738
124	0xbb99a8ea	-0.0046893256
125	0xbca8ebe9	-0.020620303
126	0xbbc53782	-0.00601858
127	0x3df63a54	0.12022844
128	0xbc47ca28	-0.012194194
129	0x3d03d29f	0.032183286
130	0xbdd48e8e	-0.10378753
131	0xbddedd67	-0.10882073
132	0x3d0c4b69	0.034251604
133	0xbe0897d9	-0.13339175
134	0xbdeef57e	-0.11667918
135	0xbd4c1796	-0.04982718
136	0x3caa00c1	0.020752313
137	0x3cebf5bf	0.028803704
138	0xbd8e97f2	-0.06962575
139	0x3da45434	0.08023873
140	0x3d094faf	0.033523258
141	0x3de59352	0.1120974
142	0xbd396f81	-0.045272354
143	0x3dccadff	0.099941246
144	0xba957119	-0.0011401504
145	0xbd9b3b71	-0.07579697
146	0xbaacabfc	-0.0013173814
147	0x3c80462d	0.015658462
148	0xbdeb45cc	-0.11487922
149	0xbd4f40a6	-0.050598763
150	0x3e07ec04	0.13273627
151	0x3ea0393d	0.3129367
152	0x3e3e9796	0.18612513
153	0x3e7ccb88	0.24687016
154	0x3db1a844	0.08674672
155	0x3dbcc2b5	0.09216825
156	0x3e66973b	0.22518627
157	0x3e730049	0.23730578
158	0x3e88d191	0.26722386
159	0x3dfa268b	0.12214383
160	0x3e1be67f	0.15224646
161	0x3e2cff95	0.16894372
162	0x3e59e7c0	0.21279812
163	0x3e72914c	0.23688239
164	0x3e9f4c62	0.31112963
165	0x3e54ba03	0.20774083
166	0x3e3aee5a	0.18254986
167	0x3e1f577c	0.15560716
168	0x3e23e85f	0.16006611
169	0x3e3846da	0.17995778
170	0x3e113248	0.14179337
171	0x3dc0163f	0.09379243
172	0x3e4a3a9f	0.19748925
173	0x3e2bdae1	0.16782714
174	0x3e711a3f	0.23545168
175	0x3dba1455	0.09085909
176	0x3e21bb98	0.15794218
177	0x3e2fc47e	0.171648
178	0x3e094b00	0.13407516
179	0x3e88bd83	0.26707086
180	0x3e56c422	0.20973256
181	0x3e292b33	0.16520385
182	0x3e193628	0.14962065
183	0xbc13a397	-0.009011171
184	0x3e5ca8b5	0.21548732
185	0x3d9729bc	0.07381007
186	0x3e64746f	0.22310041
187	0x3e823f18	0.25438762
188	0x3e859500	0.2609024
189	0x3e7041cf	0.23462604
190	0x3de17dca	0.110103205
191	0x3ca49451	0.020090254
192	0x3e25f6e0	0.16207457
193	0x3e965845	0.2936422
194	0x3e23171b	0.15926783
195	0x3e14517a	0.14484206
196	0x3e8b4e37	0.2720811
197	0x3d0d581b	0.034507852
198	0x3cce3983	0.025173908
199	0x3e77ee96	0.24212107

weight f4 [2, 50]
0	0xbe76a8d5	-0.24087842
1	0x3e291e9c	0.16515583
2	0xbeadcc42	-0.339449
3	0x3eb82f6c	0.3597368
4	0x3d7a3554	0.061086014
5	0xbea79a07	-0.327347
6	0xbe8f230f	-0.27956435
7	0xbdbcab20	-0.09212327
8	0x3ea8b743	0.32952318
9	0xbea2bf0a	-0.31786376
10	0xbea17b29	-0.31539276
11	0xbe9a0af0	-0.3008647
12	0x3e266571	0.16249634
13	0x3e87706b	0.26452956
14	0x3e9371aa	0.28797656
15	0x3eb319a8	0.34980512
16	0xbea985b0	-0.33109808
17	0x3e8c0013	0.27343807
18	0x3df5f0a4	0.12008789
19	0x3e6b8abe	0.23002145
20	0xbe8eb356	-0.27871197
21	0xbeb73a3d	-0.3578662
22	0x3e68bd02	0.22728351
23	0xbe80367d	-0.2504157
24	0xbea81244	-0.32826436
25	0x3e102bf4	0.14079267
26	0x3d5539c5	0.052057046
27	0xbe2486e8	-0.16067088
28	0xbe9adc3c	-0.3024615
29	0xbe71bdf1	-0.23607613
30	0xbe746d86	-0.23869905
31	0x3e3a7c42	0.18211463
32	0xbe7b5387	-0.24543582
33	0xbe23ba67	-0.15989076
34	0x3ed15825	0.4088756
35	0x3ea52c96	0.3226058
36	0xbe972d85	-0.29526916
37	0x3e9adce9	0.30246666
38	0xbe75d0d8	-0.24005449
39	0x3eaab56c	0.3334154
40	0xbea2101e	-0.3165292
41	0x3e03481b	0.12820475
42	0x3e89dfe3	0.26928625
43	0xbe90e1a1	-0.2829714
44	0xbe86b982	-0.26313406
45	0x3ea1243b	0.31472954
46	0x3ebb966f	0.3663821
47	0x3e544854	0.20730716
48	0xbe806568	-0.25077367
49	0x3e7c4022	0.2463384
50	0x3e954ed6	0.2916171
51	0xbe60568c	-0.21908015
52	0x3e4d7dfe	0.20067593
53	0xbe046207	-0.1292802
54	0xbe3dc394	-0.18531638
55	0x3ea9d1d2	0.33167893
56	0x3e88dbe0	0.2673025
57	0x3e843593	0.25822124
58	0xbdbd48de	-0.09242414
59	0x3e7a7148	0.24457276
60	0x3e34eaa2	0.1766763
61	0x3e60c47e	0.21949956
62	0xbe8c3496	-0.2738387
63	0xbe8bb822	-0.2728892
64	0xbe842eec	-0.2581705
65	0xbe4dd683	-0.20101361
66	0x3e9b2c04	0.3030702
67	0xbe9243f8	-0.2856748
68	0xbe70fc93	-0.2353385
69	0xbe84825d	-0.2588071
70	0x3e948b98	0.29012752
71	0x3eb63238	0.3558519
72	0xbec0861d	-0.3760232
73	0x3dd7157f	0.10502147
74	0x3e789d12	0.24278668
75	0xbe9415f5	-0.28923002
76	0xbe902fb9	-0.2816141
77	0x3ea8ebc1	0.32992366
78	0x3e1d1f17	0.15343891
79	0x3e970b8d	0.29501
80	0x3dc58d9b	0.0964615
81	0xbe9b7627	-0.3036358
82	0x3e8c93d3	0.2745653
83	0x3e856791	0.26055577
84	0xbec8261a	-0.3909157
85	0xbe78c0bc	-0.24292272
86	0x3ebfcee3	0.3746253
87	0xbe1c9b18	-0.15293539
88	0x3e521146	0.20514402
89	0xbe56423f	-0.20923708
90	0x3dd9e678	0.106396616
91	0xbe932fb6	-0.28747338
92	0xbe93674e	-0.28789753
93	0x3e972edc	0.29527938
94	0x3e1f88e7	0.15579568
95	0xbe661212	-0.22467831
96	0xbe5b60fe	-0.21423718
97	0xbe612556	-0.21986899
98	0x3e634313	0.22193556
99	0xbeb7b2d6	-0.35878628

bias f4 [2]
0	0xbdb632bc	-0.088963956
1	0x3dea412b	0.11438211
