model.pth (torch, 125318 bytes, 6 tensors)

weight_ih_l0 f4 [200, 100]
00000000: 4ff4 33bd cd9c a3be 04e4 bb3c c59c 66be
00000010: a331 eb3d ba6c 5ebe aa13 113e f465 673e
00000020: 0045 663e e271 07be 9432 17bc c9d7 3cbe
00000030: b59e febb 9885 483d a7ba 373e 5960 a6bd
00000040: 3d71 efbd 086a 4d3e 2375 cf3c cf45 11bc
00000050: 5b9b b83e d8d7 a33d 01e9 0c3d e15c a73d
00000060: 2d8e 28be 6ab9 16be 0585 a53d 5001 413e
00000070: 86f8 9a3d 0614 d93e d10b 13bd 5760 8a3e
00000080: 111b b9be 1440 4c3d 0b76 f23d a3aa e7bd
00000090: 9ac2 72be 947c 7c3e 763b 763e 9d74 1bbe
000000a0: 510a 3bbd b3b4 813e 12c2 b73d 6b2d 97bd
000000b0: 2c6b a6bd 0eaa 4e3e a104 f53e d19d 0b3e
000000c0: d7a8 ddbe 902c 073c 51dd 07bd 5ff0 b0bd
000000d0: c63e 85be 49d2 5fbd 12e5 48be 663c 9d3e
000000e0: 26d7 e2bd 6c27 85be 7c43 833e e735 2abe
000000f0: 5299 06bf 85b5 e93c 31b7 a43e 760e d9bd
00000100: 6269 81bd de3c 7dbe 7215 7fbe 1c27 2e3d
00000110: f584 b73d 280b 8c3e 2d26 b2be a60a ecbc
00000120: b2ac ae3b e0e4 b03e 1f0a cfbd 3ded 1a3e
00000130: a5df 163e e166 973e 67eb 1cbe f8e2 a93e
00000140: 96a1 2f3f f9d5 663e 4020 693e 770d f33c
00000150: ebc9 ab3d e792 443e 99e8 22be 6544 b2bd
00000160: bd42 c3bd f567 1c3e 034c 253e d53b 8abd
00000170: 0088 f83c 4325 b3bc 2cff 0d3c d32a ddbd
00000180: 3955 ab3d 29d2 f73d 08d0 103d 5fa5 7e3e
00000190: 9ba1 82be 80fa 43bf 14e1 fd3d 8474 503e
000001a0: fb33 8bbe 6001 0d3e 7562 0cbe c71f a63d
000001b0: 2aca e4bb 4bfb e63d 0415 2bbe a427 83be
000001c0: 9ea8 813e 89ee 8dbe 54b1 b2be 6841 26be
000001d0: cd9c 1dbc e1a7 3d3e bab3 823e f44c 00bd
000001e0: fc7a 0bbe c15b 99be 5ea2 e7be 94e6 e93c
000001f0: 9009 9f3d ce97 083e 1332 9b3d d1e4 8b3e
00000200: cfad 4a3e e950 e53d f7f7 52bf 07c3 ecb9
00000210: 82aa 86be c272 453d e015 60bd 7f41 1abf
00000220: ff4d ad3e 214b 193f cdbb c73c baf8 19bd
00000230: 94e0 283e 86f8 3a3e 54fb 1c3d 5ed6 eabd
00000240: 0565 f73e 8fbb e53c 0049 5a3e 9a59 c03e
00000250: 7c4c 733d f40c e73e 4e7a c5bd b1f6 8a3e
00000260: 74c2 81bd 9c0d 4bbe 190e c03e 1c3b f63c
00000270: cb81 00bd c48e b53d ce95 233c 3d5c 13be
00000280: e861 b1be 48d5 a83e 2b84 3b3e 06d8 ccbd
00000290: 8eef a5be bea1 09bf 5a21 54be 2b89 073f
000002a0: 6811 373f 5f63 57be 7fc4 a43e 93a3 11bf
000002b0: ed91 a9be 7325 6f3e b4be 63be 4ff5 023d
000002c0: 28d7 893e e672 e73e 4276 883e 3569 66be
000002d0: 17ac e23e 53bd 0c3e d8c2 ae3e b9b9 dabe
000002e0: 5874 ea3c 1612 17be 3648 033f 5519 5e3e
000002f0: 4942 853e 97af 473e c69a 62bd 9a5f a0be
00000300: 0c59 bcbc 5e8a ccbd 2d18 26be 11ea 1e3f
00000310: 5910 41be d33f 503e 03dd 513e fadc 253e
00000320: 60b2 2cbc cb8f f13c 28a3 91be 49fc 7ebe
00000330: d6f4 eabd 4413 4abe 08bf 12be f7af 913d
00000340: f343 ebbd ffc8 163e c3d8 ce3d 19a4 8cbe
00000350: 818f 2bbe 4853 51bd 9031 a8bd f4c3 23bd
00000360: f25c 983c 16d8 a93e 8d9a e33c dae9 4e3e
00000370: 2217 5a3d 61f3 45be 330d e2bd e2a8 313d
00000380: 7f8a 72be 9d78 80be ff13 e53e 9df8 1f3e
00000390: 8f15 5e3e e447 723e 674f 943d 3a7e 993e
000003a0: b9d6 9b3e b080 e7bd 8878 e3bc 112b f0bc
000003b0: 0ae5 273e 34c1 943e 4e87 6f3d 6f51 5a3e
000003c0: 6f0f 053d 7dc3 543e b9b5 4c3d 09b7 84bc
000003d0: 802a 2bbe 1ace 9ebc 1bf9 973d 0f05 d93d
000003e0: 354a 0abd dd4b bb3e b725 0fbe fff2 823a
000003f0: 0dac 48be 61f7 91bd 2e2c 36be 9d0e 783d
-0.043934163 -0.31955567 0.022935875 -0.2252074 0.11484077 -0.21721163 0.14167657 0.22597486
0.22487259 -0.13227037 -0.009228367 -0.1844169 -0.007770384 0.04895553 0.17942296 -0.081238456
-0.1169152 0.20059979 0.02532441 -0.008866741 0.36056027 0.08000153 0.034401897 0.08172012
-0.16460486 -0.14719167 0.08082012 0.18848157 0.07566933 0.4239809 -0.03589994 0.27026626
-0.36153463 0.049865797 0.11838921 -0.11311843 -0.23707047 0.24656898 0.2404612 -0.15181203
-0.045664135 0.25333175 0.08972563 -0.0738171 -0.0812591 0.20182058 0.47855094 0.13634421
-0.43292877 0.008250371 -0.03317005 -0.08639597 -0.26024455 -0.054643903 -0.19618633 0.30710143
-0.110761926 -0.2600664 0.25637424 -0.16622125 -0.525777 0.028528938 0.32171014 -0.10598461
-0.06318928 -0.2473025 -0.24910524 0.042517766 0.089609064 0.27352262 -0.3479475 -0.028813671
0.0053306455 0.34549618 -0.10109352 0.15129562 0.14733751 0.29570678 -0.15324174 0.33180976
0.68605936 0.22542562 0.22766209 0.029669506 0.08388122 0.19196664 -0.15909041 -0.087044515
-0.09534214 0.15274031 0.16142277 -0.06749693 0.030338287 -0.021868354 0.008666795 -0.10799184
0.08365864 0.12100632 0.035354644 0.24867772 -0.2551392 -0.7655411 0.12396446 0.20356947
-0.27188095 0.13770056 -0.13709433 0.0811153 -0.0069821076 0.11278399 -0.16707236 -0.2561618
0.25323957 -0.2772105 -0.34900916 -0.16235888 -0.009619904 0.18521072 0.25527745 -0.03132339
-0.13621134 -0.29952815 -0.45241064 0.028552331 0.07765496 0.13339159 0.0757791 0.2732301
0.19792865 0.11197073 -0.82409614 -0.00045158734 -0.26301962 0.048205145 -0.05470836 -0.6025619
0.3384857 0.5988026 0.024381543 -0.03759072 0.1649192 0.18258867 0.038325623 -0.114666685
0.4831926 0.028043536 0.2131691 0.3756836 0.059399113 0.4512707 -0.096424684 0.27141336
-0.06335917 -0.1982941 0.37510756 0.030057482 -0.03137378 0.08865121 0.009984447 -0.14390655
-0.3464501 0.3297522 0.18312137 -0.10002141 -0.32409328 -0.53762424 -0.20715848 0.52943677
0.71510935 -0.21034001 0.32181165 -0.5689022 -0.33119145 0.2335413 -0.22240716 0.031972226
0.26921964 0.45204848 0.26652724 -0.22501071 0.4427192 0.13744096 0.3413303 -0.4271982
0.02861993 -0.14752993 0.5128206 0.21689351 0.26027134 0.19500576 -0.055323385 -0.31322938
-0.02299168 -0.09987329 -0.1622016 0.62075907 -0.18853892 0.20336847 0.20494466 0.16197577
-0.010540575 0.029487511 -0.2844479 -0.24900927 -0.1147248 -0.19733912 -0.14330685 0.07113641
-0.1148757 0.14725111 0.10099938 -0.27468947 -0.16753961 -0.051104814 -0.08212578 -0.039981797
0.018599007 0.33172673 0.027783656 0.20206395 0.053244717 -0.19331123 -0.11037674 0.04337395
-0.23685645 -0.2509202 0.44741818 0.15622182 0.21687911 0.23660237 0.07241707 0.29979116
0.30437258 -0.11303842 -0.027767435 -0.02931741 0.16395965 0.29053652 0.058478646 0.21320127
0.03248542 0.20777698 0.04997799 -0.01620056 -0.16715431 -0.019385386 0.0742056 0.10596668
-0.033762176 0.36581317 -0.13979231 0.0009990631 -0.19596882 -0.07127262 -0.1779029 0.06056081

weight_hh_l0 f4 [200, 50]
00000000: f8f5 9d3c b043 6cbd 5bbf 0d3e 9cd3 5dbd
00000010: 0734 93bd 80a8 ed3b 439e 003e 0c0b 94bc
00000020: 70bb 3a3c d4df 32bd d639 93bd f3b2 0c3e
00000030: 506f d23d 5a0c 0fbd ecf2 db3d 8694 f73d
00000040: 80af f3bb 0869 afbc 8067 08bc 466e cabd
00000050: 85f1 f1bd 92be cf3d b554 073e b416 933d
00000060: acdc 053d 0028 3e3b d3d4 88bd 1c6d 33bd
00000070: 51ca 07be 801b c1bd 7436 bc3d a8df 113d
00000080: 9c5e 043d 7c3c 4a3d 44c0 61bd 18a6 f2bd
00000090: 8058 5f3c 32b5 ec3d 1b66 023e 8ac1 9c3d
000000a0: 04c4 7ebd 74d8 b83d f03c 1f3d 80b6 1a3d
000000b0: 80af 55bd 1ac2 e3bd 3ee2 e53d 000a 34bc
000000c0: 224c dd3d aece 833d 8704 013e 0db3 a0bd
000000d0: 5c31 c3bc 5008 373c b49f 513d c0e1 42bb
000000e0: bda5 b6bd 0387 82bd 845b 0fbd 1462 eebd
000000f0: e047 bd3c 00cc 4b3d b4f9 a43d 4495 613d
00000100: 0015 31ba d2a7 9c3d aa34 cf3d 5c02 ca3d
00000110: e0d5 a9bd 124b df3d 94d2 ad3d a225 92bd
00000120: 404c d9bd aac1 07be 50de 513c 0659 e33d
00000130: 4a58 b0bd 80bc f5ba a04e 9f3d 6e87 f13d
00000140: e28e bb3d 09ff 9abd 2a11 8cbd 707b 76bd
00000150: a236 e63d 9c5c 67bd 50c1 4dbc 9a5b d1bd
00000160: f00d 26bc 26ae 8f3d 5ccf e6bc f980 d1bd
00000170: cc97 313d 2137 ecbd 88ad a43c b04c 2c3c
00000180: 0b2b 033e 6003 5e3d 5d48 073e 0c7c f4bc
00000190: f47d 4c3d 2975 0bbe 6992 c8bd 80f6 87bb
000001a0: a0c6 83bd 084f ce3c 7a1e 23bd 1891 c9bd
000001b0: 5e66 6dbd 9b12 063e e029 c93b 54be 98bc
000001c0: 50fd 763d 94b6 6d3d 48b2 c5bc a0b4 9e3b
000001d0: bb05 89bd fa93 a7bd 8682 b53d f887 733d
000001e0: 9547 ddbd f887 c23c a6bb edbd 916d 013e
000001f0: 00ce 1dba ce5b 0bbe 2508 bfbd 6e20 f7bd
00000200: 80c6 863a f030 673c 6223 22bd c8a5 c63c
00000210: 0066 65bd 00c7 9d3d b4b1 383d 839f fbbd
00000220: 606e 633d 0036 253b e20b 8a3d e818 153d
00000230: 8ecc 73bd d0a5 ad3c 408c 1a3d 9df0 eabd
00000240: 4039 24bc 9878 4f3d 90e7 8a3c 9622 b73d
00000250: 2008 f3bb ba86 bbbd 868c 09be be7c e03d
00000260: 5033 623c 4552 d1bd cc55 10bd 7c23 593d
00000270: 2ce4 e6bd a267 c33d d42e d73d 01f6 093e
00000280: cc0b 06be 0eb8 f7bd b619 e33d c28c dd3d
00000290: 9824 d0bc 946e b03d 56cf 9b3d 8856 c4bd
000002a0: 9c07 e7bd e817 e5bd 8852 7a3d dc4e 813d
000002b0: e08b e33c 4a92 f23d e6b5 ebbd ba5a 7ebd
000002c0: 08fe aa3d 180e f9bc 401f 1fbb e0f2 81bb
000002d0: b45c 7c3d 045c 37bd 685f 82bc 80f8 a63c
000002e0: 10e0 6e3d 7c74 a6bd 2027 1fbd 267d c53d
000002f0: fa3a d63d 0343 e7bd 7cb5 703d 3651 943d
00000300: ba86 fe3d a3ce 0e3e c027 9b3c cbf4 e2bd
00000310: e258 df3d 2936 033e 26d4 b9bd edc1 ecbd
00000320: b43f abbc f956 043e 4e0d 51bd c641 ac3d
00000330: fbf6 083e a063 163d 085c 143d 2aa6 f43d
00000340: 1aab d13d 984b 3c3d 0c65 dabd c28f f4bd
00000350: edba 013e 0884 423d 3ee2 16bd c0bb 783d
00000360: 8a1c d63d 0052 123d 6c36 b5bd 10b7 d73c
00000370: 3ad3 39bd eea1 f4bd de68 e1bd 5a07 f93d
00000380: b62d 93bd 6c8e 59bd fc06 0f3d 3ecd c13d
00000390: 0061 1bba a089 cabd 2452 2b3d 1c01 c23d
000003a0: e22f b83d f325 0d3e 2132 eabd b83e c3bd
000003b0: 1243 18bd 2ea0 f33d bc08 c03d 0838 443d
000003c0: b75b a0bd 42e0 4fbd c056 2b3c d88b 15bd
000003d0: b070 e93c b82f 9f3c f8f8 943c d44f 93bd
000003e0: 42bb e83d f0b7 b93c dc47 b2bc 8c91 d43d
000003f0: 8061 a9ba 8213 fa3d 0273 b23d 0c03 4d3d
0.019282326 -0.05768174 0.13842528 -0.054156885 -0.07187658 0.007252753 0.12560372 -0.018071674
0.011397228 -0.04367049 -0.07188766 0.13740139 0.102751374 -0.03492389 0.10739693 0.120888755
-0.0074366927 -0.021412387 -0.008325458 -0.09884314 -0.11813644 0.1014377 0.13215907 0.07182065
0.032681152 0.002901554 -0.06681218 -0.043805227 -0.13260771 -0.09429073 0.091900736 0.035613686
0.03231679 0.04937409 -0.055115 -0.11848086 0.01363194 0.11557998 0.12734263 0.07654102
-0.062198654 0.0902566 0.038876474 0.0377717 -0.052169323 -0.11121006 0.11224793 -0.010988712
0.10805537 0.064359054 0.12599383 -0.07846651 -0.023827247 0.011171415 0.051177695 -0.0029736608
-0.08918331 -0.06373408 -0.034999385 -0.11639801 0.023105562 0.049755096 0.080554396 0.05507399
-0.00067551434 0.07649197 0.10117467 0.09863731 -0.082927465 0.109029904 0.0848743 -0.07136084
-0.10610247 -0.1325747 0.012809351 0.11100964 -0.0861059 -0.0018748194 0.077786684 0.11793409
0.09158112 -0.07568175 -0.06839211 -0.060176313 0.11240889 -0.056484804 -0.012558296 -0.1022255
-0.010135159 0.07015638 -0.028175049 -0.10229678 0.043357655 -0.115339525 0.020102277 0.010516331
0.12809388 0.054202437 0.13211198 -0.029844306 0.049924806 -0.13618912 -0.097935505 -0.004149258
-0.06434369 0.02518417 -0.039823987 -0.098421276 -0.057958953 0.13093035 0.006139025 -0.018645443
0.06030017 0.05803545 -0.024132863 0.0048433095 -0.06690546 -0.08182521 0.08862786 0.05945584
-0.10804669 0.023746476 -0.11608057 0.12639453 -0.0006019771 -0.1360924 -0.09327725 -0.12066732
0.0010282546 0.014110789 -0.039584525 0.024248973 -0.056005478 0.07703972 0.045091346 -0.12286284
0.055525184 0.0025209188 0.06740548 0.036400706 -0.05952125 0.02119723 0.03773141 -0.114716746
-0.010023415 0.050652117 0.01695612 0.089421436 -0.00741674 -0.091565564 -0.13432512 0.10961293
0.013806179 -0.1022077 -0.035238072 0.053012356 -0.11273989 0.09541251 0.10506979 0.1347275
-0.13090438 -0.120956525 0.11088888 0.10817863 -0.025408074 0.08614841 0.076079056 -0.09586817
-0.11280748 -0.111862004 0.061113864 0.06313869 0.027776659 0.11844309 -0.11509304 -0.062098242
0.08349234 -0.030402228 -0.00242801 -0.0039657205 0.061611846 -0.044765487 -0.015914634 0.020382166
0.05831915 -0.081276864 -0.038855672 0.09643011 0.10460468 -0.11292078 0.058766827 0.07242052
0.12428041 0.13946013 0.018939853 -0.11081847 0.10905625 0.12813629 -0.09073667 -0.11560426
-0.0209044 0.12923802 -0.05103808 0.08410983 0.13375466 0.036716104 0.03622058 0.11945756
0.10237713 0.04597053 -0.106638044 -0.11941482 0.12668963 0.047489196 -0.036836855 0.060725927
0.10454662 0.035722733 -0.08848271 0.026332408 -0.045367457 -0.11944948 -0.1100633 0.12159605
-0.07186453 -0.05311434 0.03491877 0.09462975 -0.0005927235 -0.09889531 0.041826382 0.09472868
0.08993508 0.13784008 -0.114353426 -0.09533447 -0.03717334 0.11895786 0.09376666 0.047904998
-0.07829993 -0.05075098 0.0104576945 -0.03651032 0.028496116 0.019431934 0.018185124 -0.071929604
0.113638416 0.022670716 -0.02176278 0.10379323 -0.0012922734 0.12210752 0.08713342 0.050051734

bias_ih_l0 f4 [200]
00000000: 9efc 743e a0a8 923e fdb4 2b3e f9cb 15be
00000010: d1de 31be a1b9 5e3d 73d3 b6bd c620 ae3d
00000020: 9cc4 583e 0f87 813c 6399 d7bb fb15 223e
00000030: 29d8 f23d 4142 14be bdfb 04bd ce56 13be
00000040: 8510 283e 4961 343c 75e7 953b 3ca3 5c3e
00000050: e825 fc3d 7fcd b2bd bb4c 0b3e a2d7 0c3e
00000060: 3c92 6d3c f7f0 9d3d b474 853e f9b6 843c
00000070: 3abb 1f3e 1752 993e 4829 483e 9946 033e
00000080: ba07 30be bb49 0b3e ba43 aa3d 9354 c93e
00000090: 96d9 afbd 5cee 353e 263f dd3d 53ac 0b3e
000000a0: decb 3f3e 401e ab3e c1b3 58be ccc3 eb3d
000000b0: a80c 85bd 63ae 973e be46 13be 98e0 083d
000000c0: 1baf 1e3e 2cc2 4d3e 10ab b4bd 8c99 c33d
000000d0: d070 53bc 83f2 0a3e 68c3 db3d 04cb a8bd
000000e0: c0ed 54bb 3a0e fa3d e0ee 573c ac7b 02bd
000000f0: 54f7 663d e346 85bd 360d e93d 8605 9d3d
00000100: c06c 99bd 47b3 053e 4aa0 1dbd d23f 9f3d
00000110: 8c06 8ebc 8417 9f3d 7e68 44bd 1a41 17bd
00000120: b4d2 003d 4726 103e 46ee 18bd 8c59 5c3d
00000130: 2856 833c 86ff c13d 0eef e33d 1a05 06be
00000140: 8a62 f7bd e4be fdbc 0771 0d3e 30c3 9abc
00000150: 1422 213d 6c35 483d def8 8b3d 60d7 6dbd
00000160: 909c 3cbc a8c8 893d b06f a63d c014 333b
00000170: a657 e73d b029 ee3c 8465 debd ce4a ee3d
00000180: d44d c93d ad57 eabd 8877 f7bc e898 d53d
00000190: a8d7 eb3c e482 2e3e 38fc 503d 3d48 16be
000001a0: e53f 1fbe 13c3 88bd 3895 c63d 0deb d0bd
000001b0: b632 10be 6d90 3abd 85fc 9b3d a3eb b63b
000001c0: a2ee 9b3c 3bd0 e7bd 51ee 873d 87b9 aabd
000001d0: 6c87 9dbd 3205 08bd 4c0a 4a3d 1f61 aa3d
000001e0: abb5 0fbd 76b6 cb3d 96b3 503d dee0 903d
000001f0: 6e34 843d 9f5b 3bbe 00e7 d7bc d9d7 90bd
00000200: fda3 1e3c 6609 c4bd efc5 053e 6055 ca3b
00000210: 8f6e c13d 9082 80bd 950f 44bd 30af 0ebd
00000220: bf54 903d 0869 5c3d 2dd7 e0bc 1e5a 09bb
00000230: bb17 ad3c 85b2 0c3d 8983 9c3d 127c 99bc
00000240: f612 3fbd 1843 2a3e 66db 2c3d 834a 1e3e
00000250: a545 013e cb3c 38bd 7e9c 5a3e dcfd 8f3d
00000260: d092 273e 1777 55bd 6390 e33d 8fc1 113d
00000270: e2f3 913d 5e71 0d3e 7214 163e c690 773b
00000280: 2db8 e5bd 07c1 d03d fe93 493d 90ee 583b
00000290: 51c5 1b3e c771 6b3d a20c e13c bfaf cdbd
000002a0: 8c3e 013e f5c4 633e 258e 6c3e 2fa6 a0bd
000002b0: 8b94 973d df7e b23d 805a b73d ae47 203d
000002c0: 146c 0f3d 84de e5bc 9b45 eb3d 7923 28bb
000002d0: 17d3 463d cf55 a23d 2cd7 e93d f32f 603e
000002e0: fbef 3c3d 1214 e53d 8999 c9bc a0a8 9fbc
000002f0: 3c39 db3d efe8 1b3e aed3 a83d 8032 a93d
00000300: 9485 86bd d155 433d 7b53 a3bb 6472 293e
00000310: b155 ed3d 6608 afbc 7e59 bf3d c47c fbbc
0.23924491 0.28644276 0.1676826 -0.1462859 -0.17370154 0.05437625 -0.089270495 0.08502345
0.2116875 0.015811471 -0.0065795644 0.15828697 0.118576355 -0.14478399 -0.03246664 -0.14388582
0.16412552 0.011009523 0.004574711 0.21546644 0.123119175 -0.087306015 0.13603489 0.13754132
0.014500197 0.07711976 0.260656 0.01620053 0.15598765 0.29945442 0.19546998 0.128199
-0.17190447 0.13602345 0.08313699 0.39322338 -0.08586423 0.17766708 0.1080306 0.13639955
0.18730113 0.33421516 -0.2116232 0.11511955 -0.064965546 0.29625234 -0.14382455 0.033417314
0.15496485 0.20093602 -0.0882169 0.09550771 -0.012905315 0.13569073 0.1073063 -0.08241847
-0.0032490343 0.12209745 0.013179511 -0.031856224 0.056388214 -0.06507661 0.11379473 0.07667069
-0.074914455 0.1305667 -0.03848294 0.07775845 -0.017337106 0.07768157 -0.047951214 -0.03692732
0.031450942 0.14077102 -0.03733661 0.053796336 0.016032293 0.09472565 0.111295804 -0.13087884
-0.12079342 -0.030974813 0.13812648 -0.0188919 0.03933914 0.048879072 0.06834577 -0.058066726
-0.011511937 0.06727725 0.081267715 0.00273256 0.112960145 0.029072613 -0.10859206 0.116353616
0.09829298 -0.11442504 -0.030208364 0.10429555 0.028789356 0.17042118 0.051021785 -0.14675994
-0.15551718 -0.066778325 0.0969643 -0.102010824 -0.14081845 -0.04554789 0.07616524 0.0055822893
0.019034687 -0.11319014 0.06637252 -0.08336168 -0.07691845 -0.03320808 0.049326226 0.08319306
-0.03508536 0.09946911 0.050952516 0.0707414 0.06455313 -0.1829667 -0.026355267 -0.0707242
0.009682653 -0.09572105 0.13063787 0.0061747283 0.094449155 -0.06274903 -0.047866423 -0.03483504
0.07047414 0.053811103 -0.027446354 -0.0020958255 0.02112948 0.034349937 0.07642276 -0.01873592
-0.046648942 0.16627157 0.042201422 0.15458111 0.12624224 -0.04497985 0.2134876 0.07030842
0.16364598 -0.052115526 0.11111524 0.035584982 0.07126595 0.13812777 0.14656237 0.00377755
-0.11216769 0.10193067 0.049213402 0.0033101179 0.15211989 0.057481553 0.027471844 -0.100432865
0.12621516 0.22243102 0.23101099 -0.07844197 0.07401379 0.08715605 0.089528084 0.03913086
0.03501518 -0.028060205 0.114878856 -0.002565591 0.048541155 0.07926523 0.11417994 0.21893291
0.0461273 0.11185469 -0.024609344 -0.019489586 0.10704276 0.15225576 0.082435 0.08261585
-0.06568447 0.047689263 -0.004984317 0.16547543 0.1158861 -0.02136631 0.09343241 -0.030699141

bias_hh_l0 f4 [200]
00000000: 617c 543d b922 5d3c 557e c63d f234 c4bc
00000010: 00ab 453c e924 213e 6319 d1bd a1e2 143e
00000020: ca03 663e f38f a4bd c112 afbd 30ef 293e
00000030: 6f7f 163d fff9 39be e37b 223e d111 11bd
00000040: fa81 433b fc7c a8bc 790f ae3d fd18 4a3e
00000050: 2df1 533e 759c 273d 6785 02be 962a 0abd
00000060: 8035 283e 5c7c 173e 0267 423e 4448 d03d
00000070: bb02 443e c424 4f3e 64d4 1a3e d406 1e3e
00000080: 0c68 f03c 5a87 58bc f99f b83d 2ac4 a63e
00000090: 24e7 d63c 47eb f43d 841c 013e 86e7 8c3e
000000a0: a179 2a3e 920f a53e 840b 30be 7198 f83b
000000b0: ff77 4b3d 5d0a 0f3e f310 20be 0a25 b53d
000000c0: f26f 2f3e e3ed 2b3e 9abc 04bd 94a5 0abe
000000d0: d08d 773c b48a 9d3d ecba 003d 262a 19bd
000000e0: a481 74bd a6ae 9ebd f22b 02be ee91 e53d
000000f0: 0c91 18bd e9a8 0bbe 1c2c 5bbd cadf 8dbd
00000100: 8e34 943d 60ba 183d acbb 563d 8830 313d
00000110: d4f4 223d 8acf fc3d b025 a4bd d6bc 49bd
00000120: c85a bb3d 685d 6a3d 106e af3c c0bb 873c
00000130: 82d4 0bbd 16bf 19bd 2850 12bd 80a1 48bb
00000140: ee19 ec3d 9249 f73d 9bea f4bd 5417 41bd
00000150: 06b8 c33d c169 d1bd 40af 553d 488b 39bd
00000160: 4842 de3c ecc2 7d3d e074 be3c 54ae f1bd
00000170: 1239 99bd c0a3 ac3d 980d 3a3d 342b aebd
00000180: 0658 a8bd a594 ccbd a4a2 90bd db55 02be
00000190: d946 933c b318 983d 2fd4 f73c 0d48 d2bc
000001a0: 21e9 9ebd 6a54 7d3d dad4 983d 3bec 743d
000001b0: 4db2 c63d 68be 643d 9352 ad3d 6770 66bd
000001c0: ff23 c3bb 39ad c83d a467 723b 662a f83d
000001d0: 178c c33d fefc 753d e1e4 2c3e df64 d73d
000001e0: 1e8b c33d 80af 6e3d 0745 a3bd b733 4bbd
000001f0: 7c42 82bd 2551 033d 69ff e6bc 949a f83b
00000200: 7209 e8bc 21d5 16bd 6912 9d3d c36f caba
00000210: 789b 0d3e 0998 8cbd 6dfd fd3d 1d85 4d3d
00000220: cffa 0ebe 78f7 82bd 49a3 cf3d af3f 9abd
00000230: c3c1 9bbd d035 27bd 6706 0a3d 61bd a7bc
00000240: 63fe 023e a1c4 05bd 90ee 31bd cb5a 323e
00000250: 3406 3bbd 0583 153d 7cf3 d23d 696b c53c
00000260: 636c 743e 0de1 af3c aa3e e4bd 7ebd c83d
00000270: 3d41 c03d b4ed 163c c508 773e 4eda 3fbc
00000280: e17d c03d de69 893d b706 2d3b 88cd c53c
00000290: f1a1 bf38 8bbc 5fbd 204a c93d de0a 903d
000002a0: cf78 1d3d daa5 be3d 7786 be3d 0198 643d
000002b0: d50e 7d3d c7cb 83bd 8102 8d3c 7e92 4cbd
000002c0: 1775 103e b838 3abe 1442 0f3e a9ca dbb9
000002d0: 5c1d 7d3e 9e59 483e 10dd a43d 74f6 663d
000002e0: 51ea d8ba 8813 a73d 4fcd a43d ab7a 6b3e
000002f0: 0926 c53d 2e80 7b3e 5cea 813c dae7 2f3e
00000300: 6e48 69bd 0d3f 403e d893 db3d 0d6a ae3c
00000310: 85ab a1bc eb67 293e d56b 3a3e 43f2 143e
0.05187643 0.013497048 0.09692065 -0.023951028 0.012064695 0.15736736 -0.1020992 0.14539577
0.22462383 -0.08035269 -0.08548499 0.16595149 0.036742624 -0.18161772 0.15867572 -0.03541738
0.002983211 -0.02056741 0.08499045 0.19736095 0.2069747 0.040920693 -0.12746201 -0.03373202
0.16426659 0.14793533 0.18984607 0.101700336 0.19141667 0.20228869 0.15120083 0.15432292
0.029346488 -0.013215864 0.09014887 0.32571536 0.026233263 0.11958938 0.12608534 0.27520388
0.1664796 0.32238442 -0.17191893 0.007586532 0.049674984 0.13968797 -0.15631466 0.08844955
0.17132547 0.16789965 -0.032406427 -0.13539726 0.015109494 0.07692471 0.031428263 -0.03739371
-0.059693947 -0.07748155 -0.12712076 0.112094745 -0.037247702 -0.13638653 -0.053508863 -0.0692745
0.072365865 0.037287116 0.05242507 0.043259174 0.039784268 0.123442724 -0.08015001 -0.049252354
0.091481745 0.057217985 0.021414787 0.016569018 -0.03413821 -0.03753575 -0.035720974 -0.003061384
0.11528383 0.12074579 -0.1195881 -0.047141388 0.09556584 -0.10225249 0.052169085 -0.045298845
0.027131215 0.06195347 0.02324909 -0.118008286 -0.074815884 0.0842967 0.04542312 -0.08504334
-0.08219914 -0.09989289 -0.07062271 -0.12728064 0.017978119 0.07426586 0.030252544 -0.025669122
-0.077593096 0.06184808 0.07462473 0.0597956 0.09701977 0.055845648 0.084630154 -0.05625954
-0.005955219 0.097986646 0.0036988044 0.12117462 0.095482044 0.060055725 0.16884185 0.105172865
0.09548019 0.05827284 -0.0797215 -0.049609866 -0.06360337 0.032059807 -0.02819796 0.0075867865
-0.028324816 -0.03682435 0.07669527 -0.0015444685 0.13828838 -0.06864936 0.12401853 0.050175775
-0.13962863 -0.06394857 0.10138566 -0.07531678 -0.076053165 -0.040822804 0.033697512 -0.020476045
0.12792353 -0.032658223 -0.0434404 0.17417447 -0.045660213 0.036501903 0.10300347 0.024099069
0.23869471 0.021469617 -0.11144765 0.09801768 0.09387443 0.009211946 0.24124439 -0.011709763
0.093990095 0.06709646 0.0026401707 0.024145856 9.137754e-05 -0.054623168 0.09828591 0.07033323
0.03844529 0.093089774 0.09302991 0.055809025 0.061781723 -0.06435352 0.017213108 -0.049944393
0.14107166 -0.18185699 0.1399005 -0.0004192193 0.24718231 0.19565436 0.08049977 0.05638738
-0.0016549324 0.08158022 0.08046972 0.22996013 0.09626395 0.24560615 0.015858822 0.17178288
-0.05695384 0.18774052 0.10721558 0.021290803 -0.019735107 0.16543548 0.18205197 0.1454554

weight f4 [2, 50]
00000000: 6f12 f43e 309e c7be 5ee2 8ebe 4d7b 77bf
00000010: 3945 1bbf ebd8 6cbf bde1 45be 233a 6f3f
00000020: 339e fc3e 2351 0fbf 479d 823f 9b8c 013f
00000030: be89 033f 7602 8abf bba5 02bf e3c9 dbbe
00000040: 0cec 0ebf 62d7 06bf e30e 1f3f 6095 953e
00000050: 2bad a4be 4be7 2bbf 690e c93e 051d 073f
00000060: 9891 d13e 1a7e 02bf 38e5 153f 15db ea3e
00000070: b83e dcbe 6972 ae3e 17cc e33e 9bec adbe
00000080: c99c 573f 6c2c d83e 2c32 e13e 0d93 f13e
00000090: 9359 18bf 4931 d63e 54be 19bf a83e 143f
000000a0: 7aa2 003f 392b d43e dce0 2c3f 0678 a43e
000000b0: 1ab2 c3be 1c6f 88be e396 56bf 0774 123f
000000c0: 7854 eb3e 679e f93e fe4e eebe 3857 f13e
000000d0: c516 b83e e741 883f a354 e73e 1e80 733f
000000e0: d34c 793e b90e 6fbf 0f79 80be 9abb bc3e
000000f0: 23cb 65bf eb19 edbe 4077 13bf afce 923f
00000100: 1a66 e53e cdb8 2f3f 5346 113f 2ce3 193f
00000110: 73d0 0fbf 6b09 98be 932b b73e 7b22 1a3f
00000120: 339b f0be c4c9 f2be d269 d9be 1d13 283f
00000130: 65d9 a8be e057 16bf 4bac 9c3e d7e0 b5be
00000140: c4a4 b0be 945e ad3e 6e10 59bf 09db babe
00000150: cc4a e3be 7ae8 06bf 91b5 153f c3d2 96be
00000160: eb62 fa3e 5c3f fabe ce7a cdbe f42d e1be
00000170: c93d 3abf 0aef a0be bf61 f03e ed2c 033f
00000180: cd6d 633f 8174 fbbe ce07 77be c422 b2be
0.47670314 -0.38987875 -0.2790708 -0.9667252 -0.606525 -0.9251849 -0.19324394 0.93448085
0.49339446 -0.5598318 1.0204247 0.5060517 0.5138205 -1.0782001 -0.51034135 -0.42927465
-0.5582893 -0.526724 0.6213209 0.29215527 -0.32163367 -0.671498 0.39268807 0.52778655
0.40931392 -0.50973666 0.58552885 0.4587027 -0.430166 0.34071663 0.44491646 -0.33969578
0.8422361 0.4222139 0.4398359 0.47182503 -0.5951168 0.41834477 -0.6005604 0.57908106
0.5024792 0.41439226 0.6753061 0.3212282 -0.38221818 -0.2664727 -0.83823985 0.57208294
0.45962882 0.48753664 -0.4654464 0.47136855 0.35954872 1.0645112 0.4518176 0.95117366
0.24345712 -0.9338184 -0.2509236 0.3686188 -0.8976309 -0.46308836 -0.57603836 1.1469325
0.4480446 0.6864136 0.5674793 0.6011226 -0.56177443 -0.29694685 0.35775432 0.60208863
-0.46993408 -0.4741956 -0.42463547 0.65654165 -0.3297836 -0.58727837 0.306002 -0.35523102
-0.34500706 0.3386122 -0.84790695 -0.36495236 -0.44393003 -0.5269848 0.58480173 -0.29457673
0.48903593 -0.48876464 -0.40132755 -0.43980372 -0.72750527 -0.31432372 0.46949574 0.51240426
0.8883942 -0.49112323 -0.24124071 -0.3479215

bias f4 [2]
00000000: ed4a 5b3d c51e ff3d
0.05353825 0.12457041
